Using device: cuda

Initializing model...
ViT(
  (patch_embed): PatchEmbedding(
    (proj): Conv2d(3, 384, kernel_size=(8, 8), stride=(8, 8))
  )
  (layers): ModuleList(
    (0-3): 4 x TransformerLayer(
      (self_attn): MultiheadAttention(
        (out_proj): NonDynamicallyQuantizableLinear(in_features=288, out_features=288, bias=True)
      )
      (conv_proj): Sequential(
        (0): Conv1d(96, 96, kernel_size=(3,), stride=(1,), padding=(1,))
        (1): GELU(approximate='none')
        (2): Conv1d(96, 96, kernel_size=(3,), stride=(1,), padding=(1,))
      )
      (pre_split_fc): Linear(in_features=384, out_features=384, bias=True)
      (post_split_fc): Linear(in_features=384, out_features=384, bias=True)
      (norm1): LayerNorm((384,), eps=1e-06, elementwise_affine=True)
      (dropout1): Dropout(p=0.1, inplace=False)
      (fc1): Linear(in_features=384, out_features=1536, bias=True)
      (fc2): Linear(in_features=1536, out_features=384, bias=True)
      (norm2): LayerNorm((384,), eps=1e-06, elementwise_affine=True)
      (dropout2): Dropout(p=0.1, inplace=False)
      (dropout_ffn): Dropout(p=0.1, inplace=False)
    )
  )
  (norm): LayerNorm((384,), eps=1e-06, elementwise_affine=True)
  (fc): Linear(in_features=384, out_features=200, bias=True)
  (dropout): Dropout(p=0.1, inplace=False)
  (classifier_dropout): Dropout(p=0.1, inplace=False)
)

Starting training...
Epoch 1/100, Loss: 5.188955267651754, Accuracy: 1.575%
Epoch [1], Param group 0 learning rate = 0.000011
Epoch 2/100, Loss: 4.894274665542085, Accuracy: 3.753%
Epoch [2], Param group 0 learning rate = 0.000021
Epoch 3/100, Loss: 4.6014291732187695, Accuracy: 6.716%
…
