VisionTransformer(
  (conv_proj): Conv2d(3, 256, kernel_size=(8, 8), stride=(8, 8))
  (encoder): Encoder(
    (dropout): Dropout(p=0.1, inplace=False)
    (layers): Sequential(
      (encoder_layer_0): EncoderBlock(
        (ln_1): LayerNorm((256,), eps=1e-06, elementwise_affine=True)
        (self_attention): MultiheadAttention(
          (out_proj): NonDynamicallyQuantizableLinear(in_features=256, out_features=256, bias=True)
        )
        (dropout): Dropout(p=0.1, inplace=False)
        (ln_2): LayerNorm((256,), eps=1e-06, elementwise_affine=True)
        (mlp): MLPBlock(
          (0): Linear(in_features=256, out_features=1024, bias=True)
          (1): GELU(approximate='none')
          (2): Dropout(p=0.1, inplace=False)
          (3): Linear(in_features=1024, out_features=256, bias=True)
          (4): Dropout(p=0.1, inplace=False)
        )
      )
      (encoder_layer_1): EncoderBlock(
        (ln_1): LayerNorm((256,), eps=1e-06, elementwise_affine=True)
        (self_attention): MultiheadAttention(
          (out_proj): NonDynamicallyQuantizableLinear(in_features=256, out_features=256, bias=True)
        )
        (dropout): Dropout(p=0.1, inplace=False)
        (ln_2): LayerNorm((256,), eps=1e-06, elementwise_affine=True)
        (mlp): MLPBlock(
          (0): Linear(in_features=256, out_features=1024, bias=True)
          (1): GELU(approximate='none')
          (2): Dropout(p=0.1, inplace=False)
          (3): Linear(in_features=1024, out_features=256, bias=True)
          (4): Dropout(p=0.1, inplace=False)
        )
      )
      (encoder_layer_2): EncoderBlock(
        (ln_1): LayerNorm((256,), eps=1e-06, elementwise_affine=True)
        (self_attention): MultiheadAttention(
          (out_proj): NonDynamicallyQuantizableLinear(in_features=256, out_features=256, bias=True)
        )
        (dropout): Dropout(p=0.1, inplace=False)
        (ln_2): LayerNorm((256,), eps=1e-06, elementwise_affine=True)
        (mlp): MLPBlock(
          (0): Linear(in_features=256, out_features=1024, bias=True)
          (1): GELU(approximate='none')
          (2): Dropout(p=0.1, inplace=False)
          (3): Linear(in_features=1024, out_features=256, bias=True)
          (4): Dropout(p=0.1, inplace=False)
        )
      )
    )
    (ln): LayerNorm((256,), eps=1e-06, elementwise_affine=True)
  )
  (heads): Sequential(
    (head): Linear(in_features=256, out_features=200, bias=True)
  )
)

Starting training...
Epoch 1/100, Loss: 5.1783, Accuracy: 1.70%
Epoch [1], Param group 0 learning rate = 0.000033
Epoch 2/100, Loss: 4.8685, Accuracy: 3.74%
Epoch [2], Param group 0 learning rate = 0.000062
Epoch 3/100, Loss: 4.5535, Accuracy: 6.68%
Epoch [3], Param group 0 learning rate = 0.000092
Epoch 4/100, Loss: 4.3324, Accuracy: 9.18%
…
